…
Subsystem: com.intellij.openapi.diff.impl.patch.CharsetEP
<+>UTF-8
===================================================================
diff --git a/notes/pt_mobilenet_summary.txt b/notes/pt_mobilenet_summary.txt
new file mode 100644
--- /dev/null	(date 1655717327890)
+++ b/notes/pt_mobilenet_summary.txt	(date 1655717327890)
@@ -0,0 +1,116 @@
+==========================================================================================
+Layer (type:depth-idx)                   Output Shape              Param #
+==========================================================================================
+├─Sequential: 1-1                        [-1, 32, 112, 112]        --
+|    └─AdaptiveAvgPool2d: 2-1            [-1, 3, 224, 224]         --
+|    └─Conv2d: 2-2                       [-1, 32, 112, 112]        864
+|    └─BatchNorm2d: 2-3                  [-1, 32, 112, 112]        64
+|    └─ReLU: 2-4                         [-1, 32, 112, 112]        --
+├─Sequential: 1-2                        [-1, 1024, 7, 7]          --
+|    └─SeparableConv: 2-5                [-1, 64, 112, 112]        --
+|    |    └─DepthWiseConv: 3-1           [-1, 32, 112, 112]        288
+|    |    └─BatchNorm2d: 3-2             [-1, 32, 112, 112]        64
+|    |    └─ReLU: 3-3                    [-1, 32, 112, 112]        --
+|    |    └─PointWiseConv: 3-4           [-1, 64, 112, 112]        2,048
+|    |    └─BatchNorm2d: 3-5             [-1, 64, 112, 112]        128
+|    |    └─ReLU: 3-6                    [-1, 64, 112, 112]        --
+|    └─SeparableConv: 2-6                [-1, 128, 56, 56]         --
+|    |    └─DepthWiseConv: 3-7           [-1, 64, 56, 56]          576
+|    |    └─BatchNorm2d: 3-8             [-1, 64, 56, 56]          128
+|    |    └─ReLU: 3-9                    [-1, 64, 56, 56]          --
+|    |    └─PointWiseConv: 3-10          [-1, 128, 56, 56]         8,192
+|    |    └─BatchNorm2d: 3-11            [-1, 128, 56, 56]         256
+|    |    └─ReLU: 3-12                   [-1, 128, 56, 56]         --
+|    └─SeparableConv: 2-7                [-1, 128, 56, 56]         --
+|    |    └─DepthWiseConv: 3-13          [-1, 128, 56, 56]         1,152
+|    |    └─BatchNorm2d: 3-14            [-1, 128, 56, 56]         256
+|    |    └─ReLU: 3-15                   [-1, 128, 56, 56]         --
+|    |    └─PointWiseConv: 3-16          [-1, 128, 56, 56]         16,384
+|    |    └─BatchNorm2d: 3-17            [-1, 128, 56, 56]         256
+|    |    └─ReLU: 3-18                   [-1, 128, 56, 56]         --
+|    └─SeparableConv: 2-8                [-1, 256, 28, 28]         --
+|    |    └─DepthWiseConv: 3-19          [-1, 128, 28, 28]         1,152
+|    |    └─BatchNorm2d: 3-20            [-1, 128, 28, 28]         256
+|    |    └─ReLU: 3-21                   [-1, 128, 28, 28]         --
+|    |    └─PointWiseConv: 3-22          [-1, 256, 28, 28]         32,768
+|    |    └─BatchNorm2d: 3-23            [-1, 256, 28, 28]         512
+|    |    └─ReLU: 3-24                   [-1, 256, 28, 28]         --
+|    └─SeparableConv: 2-9                [-1, 256, 28, 28]         --
+|    |    └─DepthWiseConv: 3-25          [-1, 256, 28, 28]         2,304
+|    |    └─BatchNorm2d: 3-26            [-1, 256, 28, 28]         512
+|    |    └─ReLU: 3-27                   [-1, 256, 28, 28]         --
+|    |    └─PointWiseConv: 3-28          [-1, 256, 28, 28]         65,536
+|    |    └─BatchNorm2d: 3-29            [-1, 256, 28, 28]         512
+|    |    └─ReLU: 3-30                   [-1, 256, 28, 28]         --
+|    └─SeparableConv: 2-10               [-1, 512, 14, 14]         --
+|    |    └─DepthWiseConv: 3-31          [-1, 256, 14, 14]         2,304
+|    |    └─BatchNorm2d: 3-32            [-1, 256, 14, 14]         512
+|    |    └─ReLU: 3-33                   [-1, 256, 14, 14]         --
+|    |    └─PointWiseConv: 3-34          [-1, 512, 14, 14]         131,072
+|    |    └─BatchNorm2d: 3-35            [-1, 512, 14, 14]         1,024
+|    |    └─ReLU: 3-36                   [-1, 512, 14, 14]         --
+|    └─SeparableConv: 2-11               [-1, 512, 14, 14]         --
+|    |    └─DepthWiseConv: 3-37          [-1, 512, 14, 14]         4,608
+|    |    └─BatchNorm2d: 3-38            [-1, 512, 14, 14]         1,024
+|    |    └─ReLU: 3-39                   [-1, 512, 14, 14]         --
+|    |    └─PointWiseConv: 3-40          [-1, 512, 14, 14]         262,144
+|    |    └─BatchNorm2d: 3-41            [-1, 512, 14, 14]         1,024
+|    |    └─ReLU: 3-42                   [-1, 512, 14, 14]         --
+|    └─SeparableConv: 2-12               [-1, 512, 14, 14]         --
+|    |    └─DepthWiseConv: 3-43          [-1, 512, 14, 14]         4,608
+|    |    └─BatchNorm2d: 3-44            [-1, 512, 14, 14]         1,024
+|    |    └─ReLU: 3-45                   [-1, 512, 14, 14]         --
+|    |    └─PointWiseConv: 3-46          [-1, 512, 14, 14]         262,144
+|    |    └─BatchNorm2d: 3-47            [-1, 512, 14, 14]         1,024
+|    |    └─ReLU: 3-48                   [-1, 512, 14, 14]         --
+|    └─SeparableConv: 2-13               [-1, 512, 14, 14]         --
+|    |    └─DepthWiseConv: 3-49          [-1, 512, 14, 14]         4,608
+|    |    └─BatchNorm2d: 3-50            [-1, 512, 14, 14]         1,024
+|    |    └─ReLU: 3-51                   [-1, 512, 14, 14]         --
+|    |    └─PointWiseConv: 3-52          [-1, 512, 14, 14]         262,144
+|    |    └─BatchNorm2d: 3-53            [-1, 512, 14, 14]         1,024
+|    |    └─ReLU: 3-54                   [-1, 512, 14, 14]         --
+|    └─SeparableConv: 2-14               [-1, 512, 14, 14]         --
+|    |    └─DepthWiseConv: 3-55          [-1, 512, 14, 14]         4,608
+|    |    └─BatchNorm2d: 3-56            [-1, 512, 14, 14]         1,024
+|    |    └─ReLU: 3-57                   [-1, 512, 14, 14]         --
+|    |    └─PointWiseConv: 3-58          [-1, 512, 14, 14]         262,144
+|    |    └─BatchNorm2d: 3-59            [-1, 512, 14, 14]         1,024
+|    |    └─ReLU: 3-60                   [-1, 512, 14, 14]         --
+|    └─SeparableConv: 2-15               [-1, 512, 14, 14]         --
+|    |    └─DepthWiseConv: 3-61          [-1, 512, 14, 14]         4,608
+|    |    └─BatchNorm2d: 3-62            [-1, 512, 14, 14]         1,024
+|    |    └─ReLU: 3-63                   [-1, 512, 14, 14]         --
+|    |    └─PointWiseConv: 3-64          [-1, 512, 14, 14]         262,144
+|    |    └─BatchNorm2d: 3-65            [-1, 512, 14, 14]         1,024
+|    |    └─ReLU: 3-66                   [-1, 512, 14, 14]         --
+|    └─SeparableConv: 2-16               [-1, 1024, 7, 7]          --
+|    |    └─DepthWiseConv: 3-67          [-1, 512, 7, 7]           4,608
+|    |    └─BatchNorm2d: 3-68            [-1, 512, 7, 7]           1,024
+|    |    └─ReLU: 3-69                   [-1, 512, 7, 7]           --
+|    |    └─PointWiseConv: 3-70          [-1, 1024, 7, 7]          524,288
+|    |    └─BatchNorm2d: 3-71            [-1, 1024, 7, 7]          2,048
+|    |    └─ReLU: 3-72                   [-1, 1024, 7, 7]          --
+|    └─SeparableConv: 2-17               [-1, 1024, 7, 7]          --
+|    |    └─DepthWiseConv: 3-73          [-1, 1024, 7, 7]          9,216
+|    |    └─BatchNorm2d: 3-74            [-1, 1024, 7, 7]          2,048
+|    |    └─ReLU: 3-75                   [-1, 1024, 7, 7]          --
+|    |    └─PointWiseConv: 3-76          [-1, 1024, 7, 7]          1,048,576
+|    |    └─BatchNorm2d: 3-77            [-1, 1024, 7, 7]          2,048
+|    |    └─ReLU: 3-78                   [-1, 1024, 7, 7]          --
+├─Sequential: 1-3                        [-1, 1000]                --
+|    └─AvgPool2d: 2-18                   [-1, 1024, 1, 1]          --
+|    └─Dropout: 2-19                     [-1, 1024, 1, 1]          --
+|    └─Conv2d: 2-20                      [-1, 1000, 1, 1]          1,025,000
+|    └─Flatten: 2-21                     [-1, 1000]                --
+==========================================================================================
+Total params: 4,231,976
+Trainable params: 4,231,976
+Non-trainable params: 0
+Total mult-adds (M): 579.35
+==========================================================================================
+Input size (MB): 0.57
+Forward/backward pass size (MB): 76.95
+Params size (MB): 16.14
+Estimated Total Size (MB): 93.67
…
diff --git a/notes/tf_mobilenet_summary.txt b/notes/tf_mobilenet_summary.txt
new file mode 100644
--- /dev/null	(date 1655717327878)
+++ b/notes/tf_mobilenet_summary.txt	(date 1655717327878)
@@ -0,0 +1,223 @@
+Model: "mobilenet_1.00_224"
+_________________________________________________________________
+ Layer (type)                Output Shape              Param #   
+=================================================================
+ input_1 (InputLayer)        [(None, 224, 224, 3)]     0         
+                                                                 
+ conv1 (Conv2D)              (None, 112, 112, 32)      864       
+                                                                 
+ conv1_bn (BatchNormalizatio  (None, 112, 112, 32)     128       
+ n)                                                              
+                                                                 
+ conv1_relu (ReLU)           (None, 112, 112, 32)      0         
+                                                                 
+ conv_dw_1 (DepthwiseConv2D)  (None, 112, 112, 32)     288       
+                                                                 
+ conv_dw_1_bn (BatchNormaliz  (None, 112, 112, 32)     128       
+ ation)                                                          
+                                                                 
+ conv_dw_1_relu (ReLU)       (None, 112, 112, 32)      0         
+                                                                 
+ conv_pw_1 (Conv2D)          (None, 112, 112, 64)      2048      
+                                                                 
+ conv_pw_1_bn (BatchNormaliz  (None, 112, 112, 64)     256       
+ ation)                                                          
+                                                                 
+ conv_pw_1_relu (ReLU)       (None, 112, 112, 64)      0         
+                                                                 
+ conv_pad_2 (ZeroPadding2D)  (None, 113, 113, 64)      0         
+                                                                 
+ conv_dw_2 (DepthwiseConv2D)  (None, 56, 56, 64)       576       
+                                                                 
+ conv_dw_2_bn (BatchNormaliz  (None, 56, 56, 64)       256       
+ ation)                                                          
+                                                                 
+ conv_dw_2_relu (ReLU)       (None, 56, 56, 64)        0         
+                                                                 
+ conv_pw_2 (Conv2D)          (None, 56, 56, 128)       8192      
+                                                                 
+ conv_pw_2_bn (BatchNormaliz  (None, 56, 56, 128)      512       
+ ation)                                                          
+                                                                 
+ conv_pw_2_relu (ReLU)       (None, 56, 56, 128)       0         
+                                                                 
+ conv_dw_3 (DepthwiseConv2D)  (None, 56, 56, 128)      1152      
+                                                                 
+ conv_dw_3_bn (BatchNormaliz  (None, 56, 56, 128)      512       
+ ation)                                                          
+                                                                 
+ conv_dw_3_relu (ReLU)       (None, 56, 56, 128)       0         
+                                                                 
+ conv_pw_3 (Conv2D)          (None, 56, 56, 128)       16384     
+                                                                 
+ conv_pw_3_bn (BatchNormaliz  (None, 56, 56, 128)      512       
+ ation)                                                          
+                                                                 
+ conv_pw_3_relu (ReLU)       (None, 56, 56, 128)       0         
+                                                                 
+ conv_pad_4 (ZeroPadding2D)  (None, 57, 57, 128)       0         
+                                                                 
+ conv_dw_4 (DepthwiseConv2D)  (None, 28, 28, 128)      1152      
+                                                                 
+ conv_dw_4_bn (BatchNormaliz  (None, 28, 28, 128)      512       
+ ation)                                                          
+                                                                 
+ conv_dw_4_relu (ReLU)       (None, 28, 28, 128)       0         
+                                                                 
+ conv_pw_4 (Conv2D)          (None, 28, 28, 256)       32768     
+                                                                 
+ conv_pw_4_bn (BatchNormaliz  (None, 28, 28, 256)      1024      
+ ation)                                                          
+                                                                 
+ conv_pw_4_relu (ReLU)       (None, 28, 28, 256)       0         
+                                                                 
+ conv_dw_5 (DepthwiseConv2D)  (None, 28, 28, 256)      2304      
+                                                                 
+ conv_dw_5_bn (BatchNormaliz  (None, 28, 28, 256)      1024      
+ ation)                                                          
+                                                                 
+ conv_dw_5_relu (ReLU)       (None, 28, 28, 256)       0         
+                                                                 
+ conv_pw_5 (Conv2D)          (None, 28, 28, 256)       65536     
+                                                                 
+ conv_pw_5_bn (BatchNormaliz  (None, 28, 28, 256)      1024      
+ ation)                                                          
+                                                                 
+ conv_pw_5_relu (ReLU)       (None, 28, 28, 256)       0         
+                                                                 
+ conv_pad_6 (ZeroPadding2D)  (None, 29, 29, 256)       0         
+                                                                 
+ conv_dw_6 (DepthwiseConv2D)  (None, 14, 14, 256)      2304      
+                                                                 
+ conv_dw_6_bn (BatchNormaliz  (None, 14, 14, 256)      1024      
+ ation)                                                          
+                                                                 
+ conv_dw_6_relu (ReLU)       (None, 14, 14, 256)       0         
+                                                                 
+ conv_pw_6 (Conv2D)          (None, 14, 14, 512)       131072    
+                                                                 
+ conv_pw_6_bn (BatchNormaliz  (None, 14, 14, 512)      2048      
+ ation)                                                          
+                                                                 
+ conv_pw_6_relu (ReLU)       (None, 14, 14, 512)       0         
+                                                                 
+ conv_dw_7 (DepthwiseConv2D)  (None, 14, 14, 512)      4608      
+                                                                 
+ conv_dw_7_bn (BatchNormaliz  (None, 14, 14, 512)      2048      
+ ation)                                                          
+                                                                 
+ conv_dw_7_relu (ReLU)       (None, 14, 14, 512)       0         
+                                                                 
+ conv_pw_7 (Conv2D)          (None, 14, 14, 512)       262144    
+                                                                 
+ conv_pw_7_bn (BatchNormaliz  (None, 14, 14, 512)      2048      
+ ation)                                                          
+                                                                 
+ conv_pw_7_relu (ReLU)       (None, 14, 14, 512)       0         
+                                                                 
+ conv_dw_8 (DepthwiseConv2D)  (None, 14, 14, 512)      4608      
+                                                                 
+ conv_dw_8_bn (BatchNormaliz  (None, 14, 14, 512)      2048      
+ ation)                                                          
+                                                                 
+ conv_dw_8_relu (ReLU)       (None, 14, 14, 512)       0         
+                                                                 
+ conv_pw_8 (Conv2D)          (None, 14, 14, 512)       262144    
+                                                                 
+ conv_pw_8_bn (BatchNormaliz  (None, 14, 14, 512)      2048      
+ ation)                                                          
+                                                                 
+ conv_pw_8_relu (ReLU)       (None, 14, 14, 512)       0         
+                                                                 
+ conv_dw_9 (DepthwiseConv2D)  (None, 14, 14, 512)      4608      
+                                                                 
+ conv_dw_9_bn (BatchNormaliz  (None, 14, 14, 512)      2048      
+ ation)                                                          
+                                                                 
+ conv_dw_9_relu (ReLU)       (None, 14, 14, 512)       0         
+                                                                 
+ conv_pw_9 (Conv2D)          (None, 14, 14, 512)       262144    
+                                                                 
+ conv_pw_9_bn (BatchNormaliz  (None, 14, 14, 512)      2048      
+ ation)                                                          
+                                                                 
+ conv_pw_9_relu (ReLU)       (None, 14, 14, 512)       0         
+                                                                 
+ conv_dw_10 (DepthwiseConv2D  (None, 14, 14, 512)      4608      
+ )                                                               
+                                                                 
+ conv_dw_10_bn (BatchNormali  (None, 14, 14, 512)      2048      
+ zation)                                                         
+                                                                 
+ conv_dw_10_relu (ReLU)      (None, 14, 14, 512)       0         
+                                                                 
+ conv_pw_10 (Conv2D)         (None, 14, 14, 512)       262144    
+                                                                 
+ conv_pw_10_bn (BatchNormali  (None, 14, 14, 512)      2048      
+ zation)                                                         
+                                                                 
+ conv_pw_10_relu (ReLU)      (None, 14, 14, 512)       0         
+                                                                 
+ conv_dw_11 (DepthwiseConv2D  (None, 14, 14, 512)      4608      
+ )                                                               
+                                                                 
+ conv_dw_11_bn (BatchNormali  (None, 14, 14, 512)      2048      
+ zation)                                                         
+                                                                 
+ conv_dw_11_relu (ReLU)      (None, 14, 14, 512)       0         
+                                                                 
+ conv_pw_11 (Conv2D)         (None, 14, 14, 512)       262144    
+                                                                 
+ conv_pw_11_bn (BatchNormali  (None, 14, 14, 512)      2048      
+ zation)                                                         
+                                                                 
+ conv_pw_11_relu (ReLU)      (None, 14, 14, 512)       0         
+                                                                 
+ conv_pad_12 (ZeroPadding2D)  (None, 15, 15, 512)      0         
+                                                                 
+ conv_dw_12 (DepthwiseConv2D  (None, 7, 7, 512)        4608      
+ )                                                               
+                                                                 
+ conv_dw_12_bn (BatchNormali  (None, 7, 7, 512)        2048      
+ zation)                                                         
+                                                                 
+ conv_dw_12_relu (ReLU)      (None, 7, 7, 512)         0         
+                                                                 
+ conv_pw_12 (Conv2D)         (None, 7, 7, 1024)        524288    
+                                                                 
+ conv_pw_12_bn (BatchNormali  (None, 7, 7, 1024)       4096      
+ zation)                                                         
+                                                                 
+ conv_pw_12_relu (ReLU)      (None, 7, 7, 1024)        0         
+                                                                 
+ conv_dw_13 (DepthwiseConv2D  (None, 7, 7, 1024)       9216      
+ )                                                               
+                                                                 
+ conv_dw_13_bn (BatchNormali  (None, 7, 7, 1024)       4096      
+ zation)                                                         
+                                                                 
+ conv_dw_13_relu (ReLU)      (None, 7, 7, 1024)        0         
+                                                                 
+ conv_pw_13 (Conv2D)         (None, 7, 7, 1024)        1048576   
+                                                                 
+ conv_pw_13_bn (BatchNormali  (None, 7, 7, 1024)       4096      
+ zation)                                                         
+                                                                 
+ conv_pw_13_relu (ReLU)      (None, 7, 7, 1024)        0         
+                                                                 
+ global_average_pooling2d (G  (None, 1, 1, 1024)       0         
+ lobalAveragePooling2D)                                          
+                                                                 
+ dropout (Dropout)           (None, 1, 1, 1024)        0         
+                                                                 
+ conv_preds (Conv2D)         (None, 1, 1, 1000)        1025000   
+                                                                 
+ reshape_2 (Reshape)         (None, 1000)              0         
+                                                                 
+ predictions (Activation)    (None, 1000)              0         
+                                                                 
+=================================================================
+Total params: 4,253,864
+Trainable params: 4,231,976
+Non-trainable params: 21,888
+_________________________________________________________________
\ No newline at end of file
Index: test.py
IDEA additional info:
Subsystem: com.intellij.openapi.diff.impl.patch.CharsetEP
…
